…
    embed = TimeDistributed(Embedding(cat_size[i], cat_embd_dim[i]))(cat_inputs[i])\n    cat_embedded.append(embed)\n\ncat_merged = concatenate(cat_embedded)\ncat_merged = Reshape((n_steps, -1))(cat_merged)\nmerged = concatenate([numerical_input, cat_merged])\nlstm_out = LSTM(64)(merged)\n\nmodel = Model([numerical_input] + cat_inputs, lstm_out)\nmodel.summary()\n\nLayer (type)                    Output Shape         Param #     Connected to                     \n==================================================================================================\ncat1_input (InputLayer)         (None, 100, 1)       0                                            \n__________________________________________________________________________________________________\ncat2_input (InputLayer)         (None, 100, 1)       0                                            \n__________________________________________________________________________________________________\ncat3_input (InputLayer)         (None, 100, 1)       0                                            \n__________________________________________________________________________________________________\ntime_distributed_1 (TimeDistrib (None, 100, 1, 50)   50000       cat1_input[0][0]                 \n__________________________________________________________________________________________________\ntime_distributed_2 (TimeDistrib (None, 100, 1, 10)   5000        cat2_input[0][0]                 \n__________________________________________________________________________________________________\ntime_distributed_3 (TimeDistrib (None, 100, 1, 100)  10000       cat3_input[0][0]                 \n__________________________________________________________________________________________________\nconcatenate_1 (Concatenate)     (None, 100, 1, 160)  0           time_distributed_1[0][0]         \n                                                                 time_distributed_2[0][0]         \n                                                                 time_distributed_3[0][0]         \n__________________________________________________________________________________________________\nnumeric_input (InputLayer)      (None, 100, 10)      0                                            \n__________________________________________________________________________________________________\nreshape_1 (Reshape)             (None, 100, 160)     0           concatenate_1[0][0]              \n__________________________________________________________________________________________________\nconcatenate_2 (Concatenate)     (None, 100, 170)     0           numeric_input[0][0]              \n                                                                 reshape_1[0][0]                  \n__________________________________________________________________________________________________\nlstm_1 (LSTM)                   (None, 64)           60160       concatenate_2[0][0]              \n==================================================================================================\nTotal params: 125,160\nTrainable params: 125,160\nNon-trainable params: 0\n__________________________________________________________________________________________________\n\nnumerical_input = Input(shape=(n_steps, n_numerical_feats), name='numeric_input')
…
_dummies(X_DF[column], prefix=column)\n\n    return dummy_matrix\n"
"# Your image shape is (, , 3)\ntest_image = cv2.imread('media/'+request.FILES['test_image'].name)\n\nif test_image is not None:\n    test_image = cv2.resize(test_image, (128, 128))\n    test_image = np.array(test_image)\n    test_image = test_image.astype('float32')\n    test_image /= 255\n    print(test_image.shape)\nelse:\n    print('image didnt load')\n\n# Your image shape is (, , 4)\ntest_image = np.expand_dims(test_image, axis=0)\nprint(test_image)\nprint(test_image.shape)\n\npred = model.predict_classes(test_image)\n"
'(360, 480) -&gt; (180, 240) -&gt; (90, 120) -&gt; (45, 60) -&gt; (22, 30) -&gt; (11, 15)\n\n(11, 15) -&gt; (22, 30) -&gt; (44, 60) -&gt; (88, 120) -&gt; (176, 240) -&gt; (352, 480)\n'
"for g, v in grads_and_vars:\n  tf.summary.histogram(v.name, v)\n  tf.summary.histogram(v.name + '_grad', g)\n\nmerged = tf.summary.merge_all()\nwriter = tf.summary.FileWriter('train_log_layer', tf.get_default_graph())\n\n...\n\n_, summary = sess.run([train_op, merged], feed_dict={I: 2*np.random.rand(1, 1)-1})\nif i % 10 == 0:\n  writer.add_summary(summary, global_step=i)\n"
'in
…
"&gt;&gt;&gt; from sklearn.preprocessing import LabelEncoder\n\n&gt;&gt;&gt; c = ['France', 'UK', 'US', 'US', 'UK', 'China', 'France']\n&gt;&gt;&gt; enc = LabelEncoder().fit(c)\n&gt;&gt;&gt; encoded = enc.transform(c)\n&gt;&gt;&gt; encoded\narray([1, 2, 3, 3, 2, 0, 1])\n\n&gt;&gt;&gt; encoded.transform(['France'])\narray([1])\n\n&gt;&gt;&gt; enc.inverse_transform(encoded)\narray(['France', 'UK', 'US', 'US', 'UK', 'China', 'France'], dtype='&lt;U6')\n\nimport pickle\n\nwith open('enc.pickle', 'wb') as file:\n    pickle.dump(enc, file, pickle.HIGHEST_PROTOCOL)\n"
'Variable Name: CUDA_PATH \nVariable Value: C:\\Program Files\\NVIDIA GPU Computing Toolkit\\CUDA\\v9.0\n'
'print(mlp.predict(scaler.transform(test_val)))\n'
'Layer (type)                 Output Shape              Param #   \n=================================================================\nconv1d_2 (Conv1D)            (None, 3000, 75)          450       \n_________________________________________________________________\nmax_pooling1d_1 (MaxPooling1 (None, 600, 75)           0         \n_________________________________________________________________\nflatten_2 (Flatten)          (None, 45000)             0         \n_________________________________________________________________\ndense_4 (Dense)              (None, 1)                 45001     \n=================================================================\nTotal params: 45,451\nTrainable params: 45,451\nNon-trainable params: 0\n_________________________________________________________________\n\n_________________________________________________________________\nLayer (type)                 Output Shape              Param #   \n=================================================================\nconv1d_4 (Conv1D)            (None, 3000, 75)          450       \n_________________________________________________________________\nmax_pooling1d_3 (MaxPooling1 (None, 600, 75)           0         \n_________________________________________________________________\nlstm_1 (LSTM)                (None, 16)                5888      \n_________________________________________________________________\ndense_5 (Dense)              (None, 1)                 17        \n=================================================================\nTotal params: 6,355\nTrainable params: 6,355\nNon-trainable params: 0\n_________________________________________________________________\n'
'import scipy\nfrom sklearn.metrics import accuracy_score\n\ndef thr_to_accuracy(thr, Y_test, predictions):\n   return -accuracy_score(Y_test, np.array(predictions&gt;thr, dtype=np.int))\n\nbest_thr = scipy.optimize.fmin(thr_to_accuracy, args=(Y_test, predictions), x0=0.5)\n'
…
'def push_to_tensor_alternative(tensor, x):\n    return torch.cat((tensor[1:], Tensor([x])))\n\n# Small Tensor\ntensor = Tensor([1,2,3,4])\n\n%timeit push_to_tensor(tensor, 5)\n&gt;&gt; 30.9 s  1.26 s per loop (mean  std. dev. of 7 runs, 10000 loops each)\n\n%timeit push_to_tensor_alternative(tensor, 5)\n&gt;&gt; 22.1 s  2.25 s per loop (mean  std. dev. of 7 runs, 10000 loops each)\n\n# Larger Tensor\ntensor = torch.arange(10000)\n\n%timeit push_to_tensor(tensor, 5)\n&gt;&gt; 57.7 s  4.88 s per loop (mean  std. dev. of 7 runs, 10000 loops each)\n\n%timeit push_to_tensor_alternative(tensor, 5)\n&gt;&gt; 28.9 s  570 ns per loop (mean  std. dev. of 7 runs, 10000 loops each)\n'
'Layer (type)                 Output Shape              Param #   \n=================================================================\ndense_13 (Dense)             (None, 128, 50)           150       \n_________________________________________________________________\ndense_14 (Dense)             (None, 128, 20)           1020      \n_________________________________________________________________\ndense_15 (Dense)             (None, 128, 5)            105       \n_________________________________________________________________\ndense_16 (Dense)             (None, 128, 2)            12        \n=================================================================\nTotal params: 1,287\nTrainable params: 1,287\nNon-trainable params: 0\n_________________________________________________________________\n\nmodel = models.Sequential()\nmodel.add(Dense(50, batch_input_shape=(None, 128, 2), kernel_initializer="he_normal" ,activation="relu"))\nmodel.add(Dense(20, kernel_initializer="he_normal", activation="relu"))\nmodel.add(Dense(5, kernel_initializer="he_normal", activation="relu"))\nmodel.add(Flatten())\nmodel.add(Dense(2))\n\nmodel.summary()\n\n_________________________________________________________________\nLayer (type)                 Output Shape              Param #   \n=================================================================\ndense_17 (Dense)             (None, 128, 50)           150       \n_________________________________________________________________\ndense_18 (Dense)             (None, 128, 20)           1020      \n_________________________________________________________________\ndense_19 (Dense)             (None, 128, 5)            105       \n_________________________________________________________________\nflatten_1 (Flatten)          (None, 640)               0         \n_________________________________________________________________\ndense_20 (Dense)             (None, 2)                 1282      \n=================================================================\nTotal params: 2,557\nTrainable params: 2,557\nNon-trainable params: 0\n_________________________________________________________________\n\nmodel = models.Sequential()\nmodel.add(Dense(50, batch_input_shape=(None, 128, 2), kernel_initializer="he_normal" ,activation="relu"))\nmodel.add(Dense(20, kernel_initializer="he_normal", activation="relu"))\nmodel.add(GlobalAveragePooling1D())\nmodel.add(Dense(5, kernel_initializer="he_normal", activation="relu"))\nmodel.add(Dense(2))\n\nmodel.summary()\n\n_________________________________________________________________\nLayer (type)                 Output Shape              Param #   \n=================================================================\ndense_21 (Dense)             (None, 128, 50)           150       \n_________________________________________________________________\ndense_22 (Dense)             (None, 128, 20)           1020      \n_________________________________________________________________\nglobal_average_pooling1d_2 ( (None, 20)                0         \n_________________________________________________________________\ndense_23 (Dense)             (None, 5)                 105       \n_________________________________________________________________\ndense_24 (Dense)             (None, 2)                 12        \n=================================================================\nTotal params: 1,287\nTrainable params: 1,287\nNon-trainable params: 0\n_________________________________________________________________\n'
"clf = SVC(kernel = 'linear', probability=True)\nscoring = ['f1']\nparam_grid = {'C': np.linspace(start=1000, stop=10000, num=4, endpoint = True)}\ngrid = GridSearchCV(clf, param_grid
…
'[[1.0, 1.0], \n [2.0, 2.0]]\n\n[1,\n 2]\n\n[[1.0, 1.0],\n [1.0, 1.0], \n [1.0, 1.0],\n [1.0, 1.0], \n [1.0, 1.0],\n [1.0, 1.0]]\n'
"return getattr(d.feed, 'title', 'Unknown title'), wc\n"
'from sklearn.feature_extraction.text import TfidfVectorizer\nall_lines = ["This is an example doc", "Another short example document .", "Just a third example"]\n\ntf = TfidfVectorizer(analyzer=\'word\')\ntfidf_matrix =  tf.fit_transform(all_lines)\nquery_string = "This is a short example string"\nprint "Query String:"\nprint tf.transform([query_string])\nprint "Example doc:"\nprint tf.transform(["This is a short example doc"])\n\nQuery String:\n  (0, 9)        0.546454011634\n  (0, 7)        0.546454011634\n  (0, 5)        0.546454011634\n  (0, 4)        0.32274454218\nExample doc:\n  (0, 9)        0.479527938029\n  (0, 7)        0.479527938029\n  (0, 5)        0.479527938029\n  (0, 4)        0.283216924987\n  (0, 2)        0.479527938029\n'
"DATA SETS\nlabel   Karpathy's      yours\n  1     [1.2, 0.7]      [1.2, 0.7]\n -1     [-0.3, -0.5]    [-0.3, 0.5]\n  1     [3.0, 0.1]      [-3, -1]\n -1     [-0.1, -1.0]    [0.1, 1.0]\n -1     [-1.0, 1.1]     [3.0, 1.1]\n  1     [2.1, -3]       [2.1, -3]\n"
"import arff\n\nX = []\ny = []\n\nfor row in arff.load('cpu.arff'):   \n    X.append(row[:-1])\n    y.append(row[-1])\n"
'accuracy = tf.reduce_mean(tf.cast(correct_prediction, "float"))\nprint(sess.run(accuracy, feed_dict={x: mnist.test.images, y_: mnist.test.labels}))\n\nprint(sess.run(y, feed_dict={x: mnist.test.images}))\n'
…
"from keras.models import Sequential\nfrom keras.layers import Dense, Activation\n\nmodel = Sequential([\n    Dense(32, input_dim=100),\n    Dense(output_dim=10),\n    Activation('sigmoid'),\n])\n\nmodel.summary()\n\nmodel2 = Sequential([\n    Dense(32, input_dim=100,trainable=False),\n    Dense(output_dim=10),\n    Activation('sigmoid'),\n])\n\nmodel2.summary()\n\n____________________________________________________________________________________________________\nLayer (type)                     Output Shape          Param #     Connected to                     \n====================================================================================================\ndense_1 (Dense)                  (None, 32)            3232        dense_input_1[0][0]              \n____________________________________________________________________________________________________\ndense_2 (Dense)                  (None, 10)            330         dense_1[0][0]                    \n____________________________________________________________________________________________________\nactivation_1 (Activation)        (None, 10)            0           dense_2[0][0]                    \n====================================================================================================\nTotal params: 3,562\nTrainable params: 3,562\nNon-trainable params: 0\n____________________________________________________________________________________________________\n____________________________________________________________________________________________________\nLayer (type)                     Output Shape          Param #     Connected to                     \n====================================================================================================\ndense_3 (Dense)                  (None, 32)            3232        dense_input_2[0][0]              \n____________________________________________________________________________________________________\ndense_4 (Dense)                  (None, 10)            330         dense_3[0][0]                    \n____________________________________________________________________________________________________\nactivation_2 (Activation)        (None, 10)            0           dense_4[0][0]                    \n====================================================================================================\nTotal params: 3,562\nTrainable params: 330\nNon-trainable params: 3,232 \n"
'class Model:\n  def __init__(self, train=True, params):\n  """ Build the model """\n\n  tf.placeholder( ... ) \n\n  tf.get_variable( ...) \n\n\n\ndef main(_):\n  with tf.Graph
…
'm = Sequential()\nm.add(Flatten(input_shape=(943, 1)))\nm.add(Dense(912, activation=\'relu\'))\nm.add(Dense(728, activation=\'relu\'))\nm.add(Dense(528, activation=\'relu\'))\nm.add(Dense(500, activation=\'relu\', name="bottleneck"))\nm.add(Dense(528, activation=\'relu\'))\nm.add(Dense(728, activation=\'relu\'))\nm.add(Dense(943, activation=\'linear\'))\n\nm.compile(loss=\'mean_squared_error\', optimizer=\'SGD\')\nm.summary()\n\nModel: "sequential"\n_________________________________________________________________\nLayer (type)                 Output Shape              Param #   \n=================================================================\nflatten (Flatten)            (None, 943)               0         \n_________________________________________________________________\ndense (Dense)                (None, 912)               860928    \n_________________________________________________________________\ndense_1 (Dense)              (None, 728)               664664    \n_________________________________________________________________\ndense_2 (Dense)              (None, 528)               384912    \n_________________________________________________________________\nbottleneck (Dense)           (None, 500)               264500    \n_________________________________________________________________\ndense_3 (Dense)              (None, 528)               264528    \n_________________________________________________________________\ndense_4 (Dense)              (None, 728)               385112    \n_________________________________________________________________\ndense_5 (Dense)              (None, 943)               687447    \n=================================================================\nTotal params: 3,512,091\nTrainable params: 3,512,091\nNon-trainable params: 0\n\nmodel = Sequential()\nmodel.add(Dense(930, activation=\'relu\', input_shape=(943, 1)))\nmodel.add(Flatten())\nmodel.add(Dense(528, activation=\'relu\'))\nmodel.add(m.get_layer(\'bottleneck\'))\nmodel.add(Flatten())\nmodel.add(Dense(100, activation=\'linear\'))\nmodel.summary()\n\nModel: "sequential_2"\n_________________________________________________________________\nLayer (type)                 Output Shape              Param #   \n=================================================================\ndense_9 (Dense)              (None, 943, 930)          1860      \n_________________________________________________________________\nflatten_3 (Flatten)          (None, 876990)            0         \n_________________________________________________________________\ndense_10 (Dense)             (None, 528)               463051248 \n_________________________________________________________________\nbottleneck (Dense)           (None, 500)               264500    \n_________________________________________________________________\nflatten_4 (Flatten)          (None, 500)               0         \n_________________________________________________________________\ndense_11 (Dense)             (None, 100)               50100     \n=================================================================\nTotal params: 463,367,708\nTrainable params: 463,367,708\nNon-trainable params: 0\n'
"sex = train_dataset['Sex'].replace(['female','male'],[0,1])\nprint(sex)\n"
'# our input tensor\nIn [50]: A = torch.tensor([0,1,2,3,0,0,1,1,2,2,3,3])\n\n# construct an intermediate boolean tensor\nIn [51]: boolean = A[:, None] == torch.uniqu
…
ue)\n    get_gradient = get_gradient_func(model)\n    grads = get_gradient([x, y, np.ones(len(y))])\n    epoch_gradient.append(grads)\n\n# (7) Convert to a 2 dimensiaonal array of (epoch, gradients) type\ngradient = np.asarray(epoch_gradient)\nprint("Total number of epochs run:", epoch)\nprint("Gradient Array has the shape:",gradient.shape)\n\nModel: "sequential_34"\n_________________________________________________________________\nLayer (type)                 Output Shape              Param #   \n=================================================================\nconv2d_115 (Conv2D)          (None, 54, 54, 96)        34944     \n_________________________________________________________________\nactivation_213 (Activation)  (None, 54, 54, 96)        0         \n_________________________________________________________________\nmax_pooling2d_83 (MaxPooling (None, 27, 27, 96)        0         \n_________________________________________________________________\nbatch_normalization_180 (Bat (None, 27, 27, 96)        384       \n_________________________________________________________________\nconv2d_116 (Conv2D)          (None, 17, 17, 256)       2973952   \n_________________________________________________________________\nactivation_214 (Activation)  (None, 17, 17, 256)       0         \n_________________________________________________________________\nmax_pooling2d_84 (MaxPooling (None, 8, 8, 256)         0         \n_________________________________________________________________\nbatch_normalization_181 (Bat (None, 8, 8, 256)         1024      \n_________________________________________________________________\nconv2d_117 (Conv2D)          (None, 6, 6, 384)         885120    \n_________________________________________________________________\nactivation_215 (Activation)  (None, 6, 6, 384)         0         \n_________________________________________________________________\nbatch_normalization_182 (Bat (None, 6, 6, 384)         1536      \n_________________________________________________________________\nconv2d_118 (Conv2D)          (None, 4, 4, 384)         1327488   \n_________________________________________________________________\nactivation_216 (Activation)  (None, 4, 4, 384)         0         \n_________________________________________________________________\nbatch_normalization_183 (Bat (None, 4, 4, 384)         1536      \n_________________________________________________________________\nconv2d_119 (Conv2D)          (None, 2, 2, 256)         884992    \n_________________________________________________________________\nactivation_217 (Activation)  (None, 2, 2, 256)         0         \n_________________________________________________________________\nmax_pooling2d_85 (MaxPooling (None, 1, 1, 256)         0         \n_________________________________________________________________\nbatch_normalization_184 (Bat (None, 1, 1, 256)         1024      \n_________________________________________________________________\nflatten_34 (Flatten)         (None, 256)               0         \n_________________________________________________________________\ndense_99 (Dense)             (None, 4096)              1052672   \n_________________________________________________________________\nactivation_218 (Activation)  (None, 4096)              0         \n_________________________________________________________________\ndropout_66 (Dropout)         (None, 4096)              0         \n_________________________________________________________________\nbatch_normalization_185 (Bat (None, 4096)              16384     \n_________________________________________________________________\ndense_100 (Dense)            (None, 4096)              16781312  \n_________________________________________________________________\nactivation_219 (Activation)  (None, 4096)              0         \n_________________________________________________________________\ndropout_67 (Dropout)         (None, 4096)              0         \n_________________________________________________________________\nbatch_normalization_186 (Bat (None, 4096)              16384     \n_________________________________________________________________\ndense_101 (Dense)            (None, 1000)              4097000   \n_________________________________________________________________\nactivation_220 (Activation)  (None, 1000)              0         \n_________________________________________________________________\ndropout_68 (Dropout)         (None, 1000)              0         \n_________________________________________________________________\nbatch_normalization_187 (Bat (None, 1000)              4000      \n_________________________________________________________________\ndense_102 (Dense)            (None, 17)                17017     \n_________________________________________________________________\nactivation_221 (Activation)  (None, 17)                0         \n=================================================================\nTotal params: 28,096,769\nTrainable params: 28,075,633\nNon-trainable params: 21,136\n_________________________________________________________________\nTrain on 1088 samples, validate on 272 samples\nEpoch 1/1\n1088/1088 [==============================] - 22s 20ms/step - loss: 3.1251 - acc: 0.2178 - val_loss: 13.0005 - 
…
g = tf.diag(tf.gather(equal, i))\n    mul = tf.matmul(diag, tf.matmul(A, tf.gather(B, i)))\n    C = C + mul\n\nsess = tf.Session()\nsess.run(tf.initialize_all_variables())\nprint(sess.run(C, feed_dict={A : a, I : index_input}))\n"
'net = ops.conv2d(net, 2048, [1, 1])\n'
'out_layer = tf.nn.tanh(out_layer)\n'
'from sklearn.preprocessing import FunctionTransformer, maxabs_scale\nfrom scipy.sparse import csc_matrix\nimport numpy as np\nlogtran = FunctionTransformer(np.log1p, accept_sparse=True)\nX = csc_matrix([[ 1., 0, 8], [ 2., 0,  0], [ 0,  1., 2]])\nY = maxabs_scale(logtran.transform(X))\n\n  (0, 0)        0.630929753571\n  (1, 0)        1.0\n  (2, 1)        1.0\n  (0, 2)        1.0\n  (2, 2)        0.5\n'
"np.tensordot(A,W,axes=((1),(0))).swapaxes(1,2)\nnp.tensordot(A,W,axes=((1),(0))).reshape(A.shape[0],W.shape[1],1)\n\nA[:,:,0].dot(W)[...,None]\n\nnp.einsum('ijk,jl-&gt;ilk',A,W)\n"
"import tensorflow as tf\n\nfeatures = tf.placeholder(tf.float32, [None, 3])\nlabels = tf.placeholder(tf.float32, [None,1])\n\n#Random weights\nW = tf.Variable([[10.0], [000.0], [0.200]], tf.float32)\ninit = tf.i
…
r_in = Input(shape=(48,1))\npower_lstm = LSTM(50, recurrent_dropout=0.4128,\n                  dropout=0.412563,\n                  kernel_initializer=power_lstm_init)(power_in)\n\nrep = RepeatVector(12)(power_lstm)\nout_lstm = LSTM(32, return_sequences=True)(rep)\nmain_out = TimeDistributed(Dense(1))(out_lstm)\n\nmodel = Model(power_in, main_out)\nmodel.summary()\n\n_________________________________________________________________\nLayer (type)                 Output Shape              Param #   \n=================================================================\ninput_3 (InputLayer)         (None, 48, 1)             0         \n_________________________________________________________________\nlstm_3 (LSTM)                (None, 50)                10400     \n_________________________________________________________________\nrepeat_vector_2 (RepeatVecto (None, 12, 50)            0         \n_________________________________________________________________\nlstm_4 (LSTM)                (None, 12, 32)            10624     \n_________________________________________________________________\ntime_distributed_1 (TimeDist (None, 12, 1)             33        \n=================================================================\nTotal params: 21,057\nTrainable params: 21,057\nNon-trainable params: 0\n_________________________________________________________________\n'
'feature_defs = ft.dfs(entityset=es,\n                      target_entity="cust",\n                      agg_primitives=["count", "sum"],\n                      verbose = True, \n  
…
'from nltk import word_tokenize\nfrom nltk.lm import MLE\nfrom nltk.lm.preprocessing import pad_both_ends, padded_everygram_pipeline\n\ns = "Natural-language processing (NLP) is an area of computer science " \\\n    "and artificial intelligence concerned with the interactions " \\\n    "between computers and human (natural) languages."\ns = s.lower()\n\npaddedLine = [list(pad_both_ends(word_tokenize(s), n=2))]\n\ntrain, vocab = padded_everygram_pipeline(2, paddedLine)\n\nlm = MLE(2)\n\nlm.fit(train, vocab)\n\nprint(lm.counts)\n\n'
'y = model.predict(np.expand_dims(x, axis=0), batch_size=1)\n'
'Frame model\n_________________________________________________________________\nLayer (type)                 Output Shape              Param #   \n=================================================================\nconv2d_1 (Conv2D)            (None, 11, 214, 16)       160       \n_________________________________________________________________\nmax_pooling2d_1 (MaxPooling2 (None, 5, 71, 16)         0         \n_________________________________________________________________\nconv2d_2 (Conv2D)            (None, 3, 69, 16)         2320      \n_________________________________________________________________\nmax_pooling2d_2 (MaxPooling2 (None, 1, 34, 16)         0         \n_________________________________________________________________\nflatten_1 (Flatten)          (None, 544)               0         \n_________________________________________________________________\ndense_1 (Dense)              (None, 32)                17440     \n_________________________________________________________________\ndense_2 (Dense)              (None, 32)                1056      \n_________________________________________________________________\ndense_3 (Dense)              (None, 3)                 99        \n=================================================================\nTotal params: 21,075\nTrainable params: 21,075\nNon-trainable params: 0\n\n_________________________________________________________________\nSong model\n_________________________________________________________________\nLayer (type)                 Output Shape              Param #   \n=================================================================\ntime_distributed_1 (TimeDist (None, 23, 3)             21075     \n_________________________________________________________________\nglobal_average_pooling1d_1 ( (None, 3)                 0         \n=================================================================\nTotal params: 21,075\nTrainable params: 21,075\nNon-trainable params: 0\n_________________________________________________________________\n\nfeatures (8, 23, 13, 216, 1)\n'
"import pandas as pd \ndata = [[1, 60, 'RL'], [2, 53, 'RR'], [3, 49, 'RL'], [4, 60, 'RL'], [5, 95, 'RR']] \ndf = pd.DataFrame(data, columns = ['Id',
…
'model = Sequential()\nmodel.add(Conv2D(32, (3, 3), padding="same", activation="relu",input_shape=input_shape))\nmodel.add(MaxPooling2D(pool_size=(2, 2),strides=(2, 2)))\n\nmodel.add(Conv2D(64, (3, 3), padding="same", activation="relu"))\nmodel.add(MaxPooling2D(pool_size=(2, 2)))\n\nmodel.add(Conv2D(128, (3, 3), padding="same", activation="relu"))\n\n#Upsampling\nmodel.add(UpSampling2D(size=(2,2),interpolation=\'nearest\'))\nmodel.add(UpSampling2D(size=(2,2),interpolation=\'nearest\'))\n\nmodel.add(Dense(8, activation=\'relu\'))\nmodel.summary()\n\n\nLayer (type)                 Output Shape              Param #   \n=================================================================\nconv2d_1 (Conv2D)            (None, 2004, 2752, 32)    1760      \n_________________________________________________________________\nmax_pooling2d_1 (MaxPooling2 (None, 1002, 1376, 32)    0         \n_________________________________________________________________\nconv2d_2 (Conv2D)            (None, 1002, 1376, 64)    18496     \n_________________________________________________________________\nmax_pooling2d_2 (MaxPooling2 (None, 501, 688, 64)      0         \n_________________________________________________________________\nconv2d_3 (Conv2D)            (None, 501, 688, 128)     73856     \n_________________________________________________________________\nup_sampling2d_1 (UpSampling2 (None, 1002, 1376, 128)   0         \n_________________________________________________________________\nup_sampling2d_2 (UpSampling2 (None, 2004, 2752, 128)   0         \n_________________________________________________________________\ndense_1 (Dense)              (None, 2004, 2752, 8)     1032      \n=================================================================\nTotal params: 95,144\nTrainable params: 95,144\nNon-trainable params: 0\n\nif x_train3d.shape[2] % 2:\n    x_train3d_adj =  x_train3d_adj[:,:,:-1,:]\n    y_train3d_adj =  y_train3d_adj[:,:,:-1,:]\n'
'1.91629073 =&gt; 5/2\n1.22314355 =&gt; 5/4\n1.51082562 =&gt; 5/3\n1 =&gt; 5/5\n'
"from sklearn import datasets\nfrom sklearn.
…
'd_2 = (y - a_2)# * sigmoid(z_2,derivate=True)\nd_1 = (d_2.dot(weights_2))[:,1:]*sigmoid(z_1,derivate=True)\n\nsumError = np.mean((y-a_2)**2)\n'
"predict_proba(['Hello'])\n"
'result_matrix = cv.cv_results_\n'
'from sklearn.feature_extraction.text import TfidfVectorizer\ncorpus = ["stack over flow stack over flow text vectorization scikit", "stack over flow"]\n\nvectorizer = TfidfVectorizer()\nx = vectorizer.fit_transform(corpus) # corpus is a collection of documents\n\nprint(vectorizer.vocabulary_) # vocabulary terms and their index\nprint(x) # tf-idf weights for each terms belong to a particular document\n\n{\'vectorization\': 5, \'text\': 4, \'over\': 1, \'flow\': 0, \'stack\': 3, \'scikit\': 2}\n  (0, 2)    0.33195438857 # first document, word = scikit\n  (0, 5)    0.33195438857 # word = vectorization\n  (0, 4)    0.33195438857 # word = text\n  (0, 0)    0.472376562969 # word = flow\n  (0, 1)    0.472376562969 # word = over\n  (0, 3)    0.472376562969 # word = stack\n  (1, 0)    0.57735026919 # second document\n  (1, 1)    0.57735026919\n  (1, 3)    0.57735026919\n\ncx = x.tocoo()\ndoc_id = -1\nfor i,j,v in zip(cx.row, cx.col, cx.data):\n    if doc_id == -1:\n        print(str(j) + \':\' + "{:.4f}".format(v), end=\' \')\n    else:\n        if doc_id != i:\n            print()\n        print(str(j) + \':\' + "{:.4f}".format(v), end=\' \')\n    doc_id = i\n\n2:0.3320 5:0.3320 4:0.3320 0:0.4724 1:0.4724 3:0.4724 \n0:0.5774 1:0.5774 3:0.5774\n'
'w
…
3, 3), activation='relu')(x)\nx = layers.MaxPooling2D((2,2))(x)\nx = layers.Conv2D(64, (3, 3), activation='relu')(x)\n\nx = layers.Flatten()(x)\nx = layers.Dense(64, activation='relu')(x)\nx = layers.Dense(10, activation='softmax')(x)\n\nmodel = Model(input, x, name='Functional')\n\nmodel.summary()\n\nmodel.compile(optimizer='adam',\n              loss=loss=tf.keras.losses.CategoricalCrossentropy(),\n              metrics=['accuracy'])\n\nhistory = model.fit(train_images, train_labels, epochs=10, \n                    validation_data=(test_images, test_labels))\n\nconv2d_16 (Conv2D)           (None, 30, 30, 32)        896       \n_________________________________________________________________\nmax_pooling2d_11 (MaxPooling (None, 15, 15, 32)        0         \n_________________________________________________________________\nconv2d_17 (Conv2D)           (None, 13, 13, 64)        18496     \n_________________________________________________________________\nmax_pooling2d_12 (MaxPooling (None, 6, 6, 64)          0         \n_________________________________________________________________\nconv2d_18 (Conv2D)           (None, 4, 4, 64)          36928     \n_________________________________________________________________\nflatten_6 (Flatten)          (None, 1024)              0         \n_________________________________________________________________\ndense_11 (Dense)             (None, 64)                65600     \n_________________________________________________________________\ndense_12 (Dense)             (None, 10)                650       \n=================================================================\nTotal params: 122,570\nTrainable params: 122,570\nNon-trainable params: 0\n_________________________________________________________________\nTrain on 50000 samples, validate on 10000 samples\nEpoch 1/10\n50000/50000 [==============================] - 15s 305us/step - loss: 1.4870 - accuracy: 0.4600 - val_loss: 1.2874 - va
…
